{
  "format": "layers-model",
  "generatedBy": "keras v2.15.0",
  "convertedBy": "TensorFlow.js Converter v4.22.0",
  "modelTopology": {
    "keras_version": "2.15.0",
    "backend": "tensorflow",
    "model_config": {
      "class_name": "Sequential",
      "config": {
        "name": "sequential_1",
        "layers": [
          {
            "class_name": "InputLayer",
            "config": {
              "batch_input_shape": [null, 60, 8],
              "dtype": "float32",
              "sparse": false,
              "ragged": false,
              "name": "input_layer"
            }
          },
          {
            "class_name": "LSTM",
            "config": {
              "name": "lstm",
              "trainable": true,
              "dtype": "float32",
              "return_sequences": true,
              "return_state": false,
              "go_backwards": false,
              "stateful": false,
              "unroll": false,
              "units": 50,
              "activation": "tanh",
              "recurrent_activation": "sigmoid",
              "use_bias": true,
              "kernel_initializer": {"class_name": "GlorotUniform", "config": {"seed": null}},
              "recurrent_initializer": {"class_name": "Orthogonal", "config": {"seed": null, "gain": 1.0}},
              "bias_initializer": {"class_name": "Zeros", "config": {}},
              "unit_forget_bias": true,
              "kernel_regularizer": null,
              "recurrent_regularizer": null,
              "bias_regularizer": null,
              "activity_regularizer": null,
              "kernel_constraint": null,
              "recurrent_constraint": null,
              "bias_constraint": null,
              "dropout": 0.0,
              "recurrent_dropout": 0.0
            }
          },
          {
            "class_name": "Dropout",
            "config": {
              "name": "dropout",
              "trainable": true,
              "dtype": "float32",
              "rate": 0.2
            }
          },
          {
            "class_name": "LSTM",
            "config": {
              "name": "lstm_1",
              "trainable": true,
              "dtype": "float32",
              "return_sequences": false,
              "return_state": false,
              "go_backwards": false,
              "stateful": false,
              "unroll": false,
              "units": 50,
              "activation": "tanh",
              "recurrent_activation": "sigmoid",
              "use_bias": true,
              "kernel_initializer": {"class_name": "GlorotUniform", "config": {"seed": null}},
              "recurrent_initializer": {"class_name": "Orthogonal", "config": {"seed": null, "gain": 1.0}},
              "bias_initializer": {"class_name": "Zeros", "config": {}},
              "unit_forget_bias": true,
              "kernel_regularizer": null,
              "recurrent_regularizer": null,
              "bias_regularizer": null,
              "activity_regularizer": null,
              "kernel_constraint": null,
              "recurrent_constraint": null,
              "bias_constraint": null,
              "dropout": 0.0,
              "recurrent_dropout": 0.0
            }
          },
          {
            "class_name": "Dropout",
            "config": {
              "name": "dropout_1",
              "trainable": true,
              "dtype": "float32",
              "rate": 0.2
            }
          },
          {
            "class_name": "Dense",
            "config": {
              "name": "dense",
              "trainable": true,
              "dtype": "float32",
              "units": 1,
              "activation": "linear",
              "use_bias": true,
              "kernel_initializer": {"class_name": "GlorotUniform", "config": {"seed": null}},
              "bias_initializer": {"class_name": "Zeros", "config": {}},
              "kernel_regularizer": null,
              "bias_regularizer": null,
              "kernel_constraint": null,
              "bias_constraint": null
            }
          }
        ]
      }
    }
  },
  "weightsManifest": [
    {
      "paths": ["group1-shard1of1.bin"],
      "weights": [
        {"name": "lstm/lstm_cell/kernel", "shape": [8, 200], "dtype": "float32"},
        {"name": "lstm/lstm_cell/recurrent_kernel", "shape": [50, 200], "dtype": "float32"},
        {"name": "lstm/lstm_cell/bias", "shape": [200], "dtype": "float32"},
        {"name": "lstm_1/lstm_cell/kernel", "shape": [50, 200], "dtype": "float32"},
        {"name": "lstm_1/lstm_cell/recurrent_kernel", "shape": [50, 200], "dtype": "float32"},
        {"name": "lstm_1/lstm_cell/bias", "shape": [200], "dtype": "float32"},
        {"name": "dense/kernel", "shape": [50, 1], "dtype": "float32"},
        {"name": "dense/bias", "shape": [1], "dtype": "float32"}
      ]
    }
  ]
}